model_f_d16r_1CNNr_d64r_d10s
Model: "sequential"
_________________________________________________________________
 Layer (type)                Output Shape              Param #   
=================================================================
 dense (Dense)               (None, 28, 16)            464       
                                                                 
 conv1d (Conv1D)             (None, 28, 1)             17        
                                                                 
 dense_1 (Dense)             (None, 28, 64)            128       
                                                                 
 flatten (Flatten)           (None, 1792)              0         
                                                                 
 dense_2 (Dense)             (None, 10)                17930     
                                                                 
=================================================================
Total params: 18539 (72.42 KB)
Trainable params: 18539 (72.42 KB)
Non-trainable params: 0 (0.00 Byte)
_________________________________________________________________
Name                           Value
-----------------------------  ---------------------------------------------
…
