model_f_d16r_d256r_d64r_d10s
Model: "sequential"
_________________________________________________________________
 Layer (type)                Output Shape              Param #   
=================================================================
 L1_Flatten (Flatten)        (None, 784)               0         
                                                                 
 L2_Dense16 (Dense)          (None, 16)                12560     
                                                                 
 C_L3_Dense64 (Dense)        (None, 256)               4352      
                                                                 
 L4_Dense64 (Dense)          (None, 64)                16448     
                                                                 
 L5_Dense10 (Dense)          (None, 10)                650       
                                                                 
=================================================================
Total params: 34010 (132.85 KB)
Trainable params: 34010 (132.85 KB)
Non-trainable params: 0 (0.00 Byte)
_________________________________________________________________
Name                           Value
-----------------------------  -----------------------------------------
…
