model_f_d16r_r_2p4_f_d64r_d10s
Model: "sequential"
_________________________________________________________________
 Layer (type)                Output Shape              Param #   
=================================================================
 L1_flatten (Flatten)        (None, 784)               0         
                                                                 
 L2_Dense16 (Dense)          (None, 16)                12560     
                                                                 
 L3_Reshape (Reshape)        (None, 4, 4, 1)           0         
                                                                 
 L4_2DAvgPool (AveragePooli  (None, 1, 1, 1)           0         
 ng2D)                                                           
                                                                 
 L5_flatten (Flatten)        (None, 1)                 0         
                                                                 
 L6_Dense64 (Dense)          (None, 64)                128       
                                                                 
 L7_Dense10 (Dense)          (None, 10)                650       
                                                                 
=================================================================
Total params: 13338 (52.10 KB)
Trainable params: 13338 (52.10 KB)
Non-trainable params: 0 (0.00 Byte)
_________________________________________________________________
Name                           Value
-----------------------------  -----------------------------------------
…
