model_f_d64r_d16r_d10s_flattenafter1sthidden
Model: "sequential"
_________________________________________________________________
 Layer (type)                Output Shape              Param #   
=================================================================
 flatten (Flatten)           (None, 784)               0         
                                                                 
 dense (Dense)               (None, 16)                12560     
                                                                 
 flatten_1 (Flatten)         (None, 16)                0         
                                                                 
 dense_1 (Dense)             (None, 64)                1088      
                                                                 
 dense_2 (Dense)             (None, 10)                650       
                                                                 
=================================================================
Total params: 14298 (55.85 KB)
Trainable params: 14298 (55.85 KB)
Non-trainable params: 0 (0.00 Byte)
_________________________________________________________________
Name                           Value
-----------------------------  ------------------------------------
…
