model_norm_f_d256_f_d64r_d10s
Model: "sequential"
_________________________________________________________________
 Layer (type)                Output Shape              Param #   
=================================================================
 L0.5_Flatten (Flatten)      (None, 784)               0         
                                                                 
 C_L1_dense256 (Dense)       (None, 256)               200960    
                                                                 
 L2_Flatten (Flatten)        (None, 256)               0         
                                                                 
 L3_Dense64 (Dense)          (None, 64)                16448     
                                                                 
 L4_Dense10 (Dense)          (None, 10)                650       
                                                                 
=================================================================
Total params: 218058 (851.79 KB)
Trainable params: 218058 (851.79 KB)
Non-trainable params: 0 (0.00 Byte)
_________________________________________________________________
Name                           Value
-----------------------------  ------------------------------------------
…
