model_2c128_mp_2c64_mp_2c64_f_d10
Model: "sequential_30"
_________________________________________________________________
 Layer (type)                Output Shape              Param #   
=================================================================
 conv2d_20 (Conv2D)          (None, 26, 26, 128)       1280      
                                                                 
 max_pooling2d_14 (MaxPooli  (None, 13, 13, 128)       0         
 ng2D)                                                           
                                                                 
 conv2d_21 (Conv2D)          (None, 11, 11, 64)        73792     
                                                                 
 max_pooling2d_15 (MaxPooli  (None, 5, 5, 64)          0         
 ng2D)                                                           
                                                                 
 conv2d_22 (Conv2D)          (None, 3, 3, 64)          36928     
                                                                 
 flatten_30 (Flatten)        (None, 576)               0         
                                                                 
 dense_74 (Dense)            (None, 10)                5770      
                                                                 
=================================================================
Total params: 117770 (460.04 KB)
Trainable params: 117770 (460.04 KB)
Non-trainable params: 0 (0.00 Byte)
_________________________________________________________________
loss [0.1335204392671585, 0.04517170041799545, 0.03159090131521225, 0.02292870357632637, 0.019063308835029602, 0.015154385939240456, 0.01183561235666275, 0.010800059884786606, 0.008353683166205883, 0.007437338586896658]
…
