model_f_d16s_f_d64r_d10s
Model: "sequential"
_________________________________________________________________
 Layer (type)                Output Shape              Param #   
=================================================================
 L0.5_Flatten (Flatten)      (None, 784)               0         
                                                                 
 C_L1_Dense16r (Dense)       (None, 16)                12560     
                                                                 
 L2_Flatten (Flatten)        (None, 16)                0         
                                                                 
 L3_Dense64 (Dense)          (None, 64)                1088      
                                                                 
 L4_Dense10 (Dense)          (None, 10)                650       
                                                                 
=================================================================
Total params: 14298 (55.85 KB)
Trainable params: 14298 (55.85 KB)
Non-trainable params: 0 (0.00 Byte)
_________________________________________________________________
Name                           Value
-----------------------------  ------------------------------------------
…
