model_f_d16r_1p2_d64r_d10s
Model: "sequential"
_________________________________________________________________
 Layer (type)                Output Shape              Param #   
=================================================================
 flatten (Flatten)           (None, 784)               0         
                                                                 
 dense (Dense)               (None, 16)                12560     
                                                                 
 Reshape (Reshape)           (None, 4, 4, 1)           0         
                                                                 
 average_pooling2d (Average  (None, 1, 1, 1)           0         
 Pooling2D)                                                      
                                                                 
 flatten_1 (Flatten)         (None, 1)                 0         
                                                                 
 Dense64 (Dense)             (None, 64)                128       
                                                                 
 Dense10 (Dense)             (None, 10)                650       
                                                                 
=================================================================
Total params: 13338 (52.10 KB)
Trainable params: 13338 (52.10 KB)
Non-trainable params: 0 (0.00 Byte)
_________________________________________________________________
Name                           Value
-----------------------------  ----------------------------------------------
…
