model_norm_f_d64_f_d64r_d10s
Model: "sequential"
_________________________________________________________________
 Layer (type)                Output Shape              Param #   
=================================================================
 L0.5_Flatten (Flatten)      (None, 784)               0         
                                                                 
 C_L1_dense64 (Dense)        (None, 64)                50240     
                                                                 
 L2_Flatten (Flatten)        (None, 64)                0         
                                                                 
 L3_Dense64 (Dense)          (None, 64)                4160      
                                                                 
 L4_Dense10 (Dense)          (None, 10)                650       
                                                                 
=================================================================
Total params: 55050 (215.04 KB)
Trainable params: 55050 (215.04 KB)
Non-trainable params: 0 (0.00 Byte)
_________________________________________________________________
Name                           Value
-----------------------------  -----------------------------------------
…
