model_f_d64r_dr50_d128r_d10s
Model: "sequential_3"
_________________________________________________________________
 Layer (type)                Output Shape              Param #   
=================================================================
 flatten_5 (Flatten)         (None, 784)               0         
                                                                 
 dense_11 (Dense)            (None, 64)                50240     
                                                                 
 dropout_4 (Dropout)         (None, 64)                0         
                                                                 
 dense_12 (Dense)            (None, 128)               8320      
                                                                 
 dense_13 (Dense)            (None, 10)                1290      
                                                                 
=================================================================
Total params: 59850 (233.79 KB)
Trainable params: 59850 (233.79 KB)
Non-trainable params: 0 (0.00 Byte)
_________________________________________________________________
loss [0.4988304376602173, 0.31262946128845215, 0.27119430899620056, 0.2516076862812042, 0.2323472946882248, 0.22134986519813538, 0.21481628715991974, 0.20516160130500793, 0.20096303522586823, 0.19752191007137299]
…
