model_f_d16r_d16s_d64r_d10s
Model: "sequential"
_________________________________________________________________
 Layer (type)                Output Shape              Param #   
=================================================================
 L1_Flatten (Flatten)        (None, 784)               0         
                                                                 
 L2_Dense16 (Dense)          (None, 16)                12560     
                                                                 
 L3_Dense16 (Dense)          (None, 16)                272       
                                                                 
 L4_Dense64 (Dense)          (None, 64)                1088      
                                                                 
 L5_Dense10 (Dense)          (None, 10)                650       
                                                                 
=================================================================
Total params: 14570 (56.91 KB)
Trainable params: 14570 (56.91 KB)
Non-trainable params: 0 (0.00 Byte)
_________________________________________________________________
Name                           Value
-----------------------------  ---------------------------------------
…
