model_f_d16r_r_2cnn16_f_d64r_d10s
Model: "sequential"
_________________________________________________________________
 Layer (type)                Output Shape              Param #   
=================================================================
 L1_flatten (Flatten)        (None, 784)               0         
                                                                 
 L2_Dense16 (Dense)          (None, 16)                12560     
                                                                 
 L3_Reshape (Reshape)        (None, 4, 4, 1)           0         
                                                                 
 L4_2Dcnn (Conv2D)           (None, 3, 3, 16)          80        
                                                                 
 L5_flatten (Flatten)        (None, 144)               0         
                                                                 
 L6_Dense64 (Dense)          (None, 64)                9280      
                                                                 
 L7_Dense10 (Dense)          (None, 10)                650       
                                                                 
=================================================================
Total params: 22570 (88.16 KB)
Trainable params: 22570 (88.16 KB)
Non-trainable params: 0 (0.00 Byte)
_________________________________________________________________
Name                           Value
-----------------------------  ---------------------------------------
…
